…
│ (DepthwiseConv2D)   │ 144)              │            │                   │
├─────────────────────┼───────────────────┼────────────┼───────────────────┤
│ block3a_bn          │ (None, 8, 16,     │        576 │ block3a_dwconv[0… │
│ (BatchNormalizatio… │ 144)              │            │                   │
├─────────────────────┼───────────────────┼────────────┼───────────────────┤
│ block3a_activation  │ (None, 8, 16,     │          0 │ block3a_bn[0][0]  │
│ (Activation)        │ 144)              │            │                   │
├─────────────────────┼───────────────────┼────────────┼───────────────────┤
│ block3a_se_squeeze  │ (None, 144)       │          0 │ block3a_activati… │
│ (GlobalAveragePool… │                   │            │                   │
├─────────────────────┼───────────────────┼────────────┼───────────────────┤
│ block3a_se_reshape  │ (None, 1, 1, 144) │          0 │ block3a_se_squee… │
│ (Reshape)           │                   │            │                   │
├─────────────────────┼───────────────────┼────────────┼───────────────────┤
│ block3a_se_reduce   │ (None, 1, 1, 6)   │        870 │ block3a_se_resha… │
│ (Conv2D)            │                   │            │                   │
├─────────────────────┼───────────────────┼────────────┼───────────────────┤
│ block3a_se_expand   │ (None, 1, 1, 144) │      1,008 │ block3a_se_reduc… │
│ (Conv2D)            │                   │            │                   │
├─────────────────────┼───────────────────┼────────────┼───────────────────┤
│ block3a_se_excite   │ (None, 8, 16,     │          0 │ block3a_activati… │
│ (Multiply)          │ 144)              │            │ block3a_se_expan… │
├─────────────────────┼───────────────────┼────────────┼───────────────────┤
│ block3a_project_co… │ (None, 8, 16, 40) │      5,760 │ block3a_se_excit… │
│ (Conv2D)            │                   │            │                   │
├─────────────────────┼───────────────────┼────────────┼───────────────────┤
│ block3a_project_bn  │ (None, 8, 16, 40) │        160 │ block3a_project_… │
│ (BatchNormalizatio… │                   │            │                   │
├─────────────────────┼───────────────────┼────────────┼───────────────────┤
│ block3b_expand_conv │ (None, 8, 16,     │      9,600 │ block3a_project_… │
│ (Conv2D)            │ 240)              │            │                   │
├─────────────────────┼───────────────────┼────────────┼───────────────────┤
…
│ (DepthwiseConv2D)   │ 240)              │            │                   │
├─────────────────────┼───────────────────┼────────────┼───────────────────┤
│ block3b_bn          │ (None, 8, 16,     │        960 │ block3b_dwconv[0… │
│ (BatchNormalizatio… │ 240)              │            │                   │
├─────────────────────┼───────────────────┼────────────┼───────────────────┤
│ block3b_activation  │ (None, 8, 16,     │          0 │ block3b_bn[0][0]  │
│ (Activation)        │ 240)              │            │                   │
├─────────────────────┼───────────────────┼────────────┼───────────────────┤
│ block3b_se_squeeze  │ (None, 240)       │          0 │ block3b_activati… │
│ (GlobalAveragePool… │                   │            │                   │
├─────────────────────┼───────────────────┼────────────┼───────────────────┤
│ block3b_se_reshape  │ (None, 1, 1, 240) │          0 │ block3b_se_squee… │
│ (Reshape)           │                   │            │                   │
├─────────────────────┼───────────────────┼────────────┼───────────────────┤
│ block3b_se_reduce   │ (None, 1, 1, 10)  │      2,410 │ block3b_se_resha… │
│ (Conv2D)            │                   │            │                   │
├─────────────────────┼───────────────────┼────────────┼───────────────────┤
│ block3b_se_expand   │ (None, 1, 1, 240) │      2,640 │ block3b_se_reduc… │
│ (Conv2D)            │                   │            │                   │
├─────────────────────┼───────────────────┼────────────┼───────────────────┤
│ block3b_se_excite   │ (None, 8, 16,     │          0 │ block3b_activati… │
│ (Multiply)          │ 240)              │            │ block3b_se_expan… │
├─────────────────────┼───────────────────┼────────────┼───────────────────┤
│ block3b_project_co… │ (None, 8, 16, 40) │      9,600 │ block3b_se_excit… │
│ (Conv2D)            │                   │            │                   │
├─────────────────────┼───────────────────┼────────────┼───────────────────┤
│ block3b_project_bn  │ (None, 8, 16, 40) │        160 │ block3b_project_… │
│ (BatchNormalizatio… │                   │            │                   │
├─────────────────────┼───────────────────┼────────────┼───────────────────┤
│ block3b_drop        │ (None, 8, 16, 40) │          0 │ block3b_project_… │
│ (Dropout)           │                   │            │                   │
├─────────────────────┼───────────────────┼────────────┼───────────────────┤
│ block3b_add (Add)   │ (None, 8, 16, 40) │          0 │ block3b_drop[0][… │
│                     │                   │            │ block3a_project_… │
├─────────────────────┼───────────────────┼────────────┼───────────────────┤
│ block4a_expand_conv │ (None, 8, 16,     │      9,600 │ block3b_add[0][0] │
│ (Conv2D)            │ 240)              │            │                   │
├─────────────────────┼───────────────────┼────────────┼───────────────────┤
…
│ (BatchNormalizatio… │ 240)              │            │                   │
├─────────────────────┼───────────────────┼────────────┼───────────────────┤
│ block4a_expand_act… │ (None, 8, 16,     │          0 │ block4a_expand_b… │
│ (Activation)        │ 240)              │            │                   │
├─────────────────────┼───────────────────┼────────────┼───────────────────┤
│ block4a_dwconv_pad  │ (None, 9, 17,     │          0 │ block4a_expand_a… │
│ (ZeroPadding2D)     │ 240)              │            │                   │
├─────────────────────┼───────────────────┼────────────┼───────────────────┤
│ block4a_dwconv      │ (None, 4, 8, 240) │      2,160 │ block4a_dwconv_p… │
│ (DepthwiseConv2D)   │                   │            │                   │
├─────────────────────┼───────────────────┼────────────┼───────────────────┤
│ block4a_bn          │ (None, 4, 8, 240) │        960 │ block4a_dwconv[0… │
│ (BatchNormalizatio… │                   │            │                   │
├─────────────────────┼───────────────────┼────────────┼───────────────────┤
│ block4a_activation  │ (None, 4, 8, 240) │          0 │ block4a_bn[0][0]  │
│ (Activation)        │                   │            │                   │
├─────────────────────┼───────────────────┼────────────┼───────────────────┤
│ block4a_se_squeeze  │ (None, 240)       │          0 │ block4a_activati… │
│ (GlobalAveragePool… │                   │            │                   │
├─────────────────────┼───────────────────┼────────────┼───────────────────┤
│ block4a_se_reshape  │ (None, 1, 1, 240) │          0 │ block4a_se_squee… │
│ (Reshape)           │                   │            │                   │
├─────────────────────┼───────────────────┼────────────┼───────────────────┤
│ block4a_se_reduce   │ (None, 1, 1, 10)  │      2,410 │ block4a_se_resha… │
│ (Conv2D)            │                   │            │                   │
├─────────────────────┼───────────────────┼────────────┼───────────────────┤
│ block4a_se_expand   │ (None, 1, 1, 240) │      2,640 │ block4a_se_reduc… │
│ (Conv2D)            │                   │            │                   │
├─────────────────────┼───────────────────┼────────────┼───────────────────┤
│ block4a_se_excite   │ (None, 4, 8, 240) │          0 │ block4a_activati… │
│ (Multiply)          │                   │            │ block4a_se_expan… │
├─────────────────────┼───────────────────┼────────────┼───────────────────┤
│ block4a_project_co… │ (None, 4, 8, 80)  │     19,200 │ block4a_se_excit… │
│ (Conv2D)            │                   │            │                   │
├─────────────────────┼───────────────────┼────────────┼───────────────────┤
│ block4a_project_bn  │ (None, 4, 8, 80)  │        320 │ block4a_project_… │
│ (BatchNormalizatio… │                   │            │                   │
├─────────────────────┼───────────────────┼────────────┼───────────────────┤
│ block4b_expand_conv │ (None, 4, 8, 480) │     38,400 │ block4a_project_… │
│ (Conv2D)            │                   │            │                   │
├─────────────────────┼───────────────────┼────────────┼───────────────────┤
│ block4b_expand_bn   │ (None, 4, 8, 480) │      1,920 │ block4b_expand_c… │
│ (BatchNormalizatio… │                   │            │                   │
├─────────────────────┼───────────────────┼────────────┼───────────────────┤
│ block4b_expand_act… │ (None, 4, 8, 480) │          0 │ block4b_expand_b… │
│ (Activation)        │                   │            │                   │
├─────────────────────┼───────────────────┼────────────┼───────────────────┤
│ block4b_dwconv      │ (None, 4, 8, 480) │      4,320 │ block4b_expand_a… │
│ (DepthwiseConv2D)   │                   │            │                   │
├─────────────────────┼───────────────────┼────────────┼───────────────────┤
│ block4b_bn          │ (None, 4, 8, 480) │      1,920 │ block4b_dwconv[0… │
│ (BatchNormalizatio… │                   │            │                   │
├─────────────────────┼───────────────────┼────────────┼───────────────────┤
│ block4b_activation  │ (None, 4, 8, 480) │          0 │ block4b_bn[0][0]  │
│ (Activation)        │                   │            │                   │
├─────────────────────┼───────────────────┼────────────┼───────────────────┤
│ block4b_se_squeeze  │ (None, 480)       │          0 │ block4b_activati… │
│ (GlobalAveragePool… │                   │            │                   │
├─────────────────────┼───────────────────┼────────────┼───────────────────┤
│ block4b_se_reshape  │ (None, 1, 1, 480) │          0 │ block4b_se_squee… │
│ (Reshape)           │                   │            │                   │
├─────────────────────┼───────────────────┼────────────┼───────────────────┤
│ block4b_se_reduce   │ (None, 1, 1, 20)  │      9,620 │ block4b_se_resha… │
│ (Conv2D)            │                   │            │                   │
├─────────────────────┼───────────────────┼────────────┼───────────────────┤
│ block4b_se_expand   │ (None, 1, 1, 480) │     10,080 │ block4b_se_reduc… │
│ (Conv2D)            │                   │            │                   │
├─────────────────────┼───────────────────┼────────────┼───────────────────┤
│ block4b_se_excite   │ (None, 4, 8, 480) │          0 │ block4b_activati… │
│ (Multiply)          │                   │            │ block4b_se_expan… │
├─────────────────────┼───────────────────┼────────────┼───────────────────┤
│ block4b_project_co… │ (None, 4, 8, 80)  │     38,400 │ block4b_se_excit… │
│ (Conv2D)            │                   │            │                   │
├─────────────────────┼───────────────────┼────────────┼───────────────────┤
│ block4b_project_bn  │ (None, 4, 8, 80)  │        320 │ block4b_project_… │
│ (BatchNormalizatio… │                   │            │                   │
├─────────────────────┼───────────────────┼────────────┼───────────────────┤
│ block4b_drop        │ (None, 4, 8, 80)  │          0 │ block4b_project_… │
│ (Dropout)           │                   │            │                   │
├─────────────────────┼───────────────────┼────────────┼───────────────────┤
│ block4b_add (Add)   │ (None, 4, 8, 80)  │          0 │ block4b_drop[0][… │
│                     │                   │            │ block4a_project_… │
├─────────────────────┼───────────────────┼────────────┼───────────────────┤
│ block4c_expand_conv │ (None, 4, 8, 480) │     38,400 │ block4b_add[0][0] │
│ (Conv2D)            │                   │            │                   │
├─────────────────────┼───────────────────┼────────────┼───────────────────┤
│ block4c_expand_bn   │ (None, 4, 8, 480) │      1,920 │ block4c_expand_c… │
│ (BatchNormalizatio… │                   │            │                   │
├─────────────────────┼───────────────────┼────────────┼───────────────────┤
│ block4c_expand_act… │ (None, 4, 8, 480) │          0 │ block4c_expand_b… │
│ (Activation)        │                   │            │                   │
├─────────────────────┼───────────────────┼────────────┼───────────────────┤
│ block4c_dwconv      │ (None, 4, 8, 480) │      4,320 │ block4c_expand_a… │
│ (DepthwiseConv2D)   │                   │            │                   │
├─────────────────────┼───────────────────┼────────────┼───────────────────┤
│ block4c_bn          │ (None, 4, 8, 480) │      1,920 │ block4c_dwconv[0… │
│ (BatchNormalizatio… │                   │            │                   │
├─────────────────────┼───────────────────┼────────────┼───────────────────┤
│ block4c_activation  │ (None, 4, 8, 480) │          0 │ block4c_bn[0][0]  │
│ (Activation)        │                   │            │                   │
├─────────────────────┼───────────────────┼────────────┼───────────────────┤
│ block4c_se_squeeze  │ (None, 480)       │          0 │ block4c_activati… │
│ (GlobalAveragePool… │                   │            │                   │
├─────────────────────┼───────────────────┼────────────┼───────────────────┤
│ block4c_se_reshape  │ (None, 1, 1, 480) │          0 │ block4c_se_squee… │
│ (Reshape)           │                   │            │                   │
├─────────────────────┼───────────────────┼────────────┼───────────────────┤
│ block4c_se_reduce   │ (None, 1, 1, 20)  │      9,620 │ block4c_se_resha… │
│ (Conv2D)            │                   │            │                   │
├─────────────────────┼───────────────────┼────────────┼───────────────────┤
│ block4c_se_expand   │ (None, 1, 1, 480) │     10,080 │ block4c_se_reduc… │
│ (Conv2D)            │                   │            │                   │
├─────────────────────┼───────────────────┼────────────┼───────────────────┤
│ block4c_se_excite   │ (None, 4, 8, 480) │          0 │ block4c_activati… │
│ (Multiply)          │                   │            │ block4c_se_expan… │
├─────────────────────┼───────────────────┼────────────┼───────────────────┤
│ block4c_project_co… │ (None, 4, 8, 80)  │     38,400 │ block4c_se_excit… │
│ (Conv2D)            │                   │            │                   │
├─────────────────────┼───────────────────┼────────────┼───────────────────┤
│ block4c_project_bn  │ (None, 4, 8, 80)  │        320 │ block4c_project_… │
│ (BatchNormalizatio… │                   │            │                   │
├─────────────────────┼───────────────────┼────────────┼───────────────────┤
│ block4c_drop        │ (None, 4, 8, 80)  │          0 │ block4c_project_… │
│ (Dropout)           │                   │            │                   │
├─────────────────────┼───────────────────┼────────────┼───────────────────┤
│ block4c_add (Add)   │ (None, 4, 8, 80)  │          0 │ block4c_drop[0][… │
│                     │                   │            │ block4b_add[0][0] │
├─────────────────────┼───────────────────┼────────────┼───────────────────┤
│ block5a_expand_conv │ (None, 4, 8, 480) │     38,400 │ block4c_add[0][0] │
│ (Conv2D)            │                   │            │                   │
├─────────────────────┼───────────────────┼────────────┼───────────────────┤
│ block5a_expand_bn   │ (None, 4, 8, 480) │      1,920 │ block5a_expand_c… │
│ (BatchNormalizatio… │                   │            │                   │
├─────────────────────┼───────────────────┼────────────┼───────────────────┤
│ block5a_expand_act… │ (None, 4, 8, 480) │          0 │ block5a_expand_b… │
│ (Activation)        │                   │            │                   │
├─────────────────────┼───────────────────┼────────────┼───────────────────┤
│ block5a_dwconv      │ (None, 4, 8, 480) │     12,000 │ block5a_expand_a… │
│ (DepthwiseConv2D)   │                   │            │                   │
├─────────────────────┼───────────────────┼────────────┼───────────────────┤
│ block5a_bn          │ (None, 4, 8, 480) │      1,920 │ block5a_dwconv[0… │
│ (BatchNormalizatio… │                   │            │                   │
├─────────────────────┼───────────────────┼────────────┼───────────────────┤
│ block5a_activation  │ (None, 4, 8, 480) │          0 │ block5a_bn[0][0]  │
│ (Activation)        │                   │            │                   │
├─────────────────────┼───────────────────┼────────────┼───────────────────┤
│ block5a_se_squeeze  │ (None, 480)       │          0 │ block5a_activati… │
│ (GlobalAveragePool… │                   │            │                   │
├─────────────────────┼───────────────────┼────────────┼───────────────────┤
│ block5a_se_reshape  │ (None, 1, 1, 480) │          0 │ block5a_se_squee… │
│ (Reshape)           │                   │            │                   │
├─────────────────────┼───────────────────┼────────────┼───────────────────┤
│ block5a_se_reduce   │ (None, 1, 1, 20)  │      9,620 │ block5a_se_resha… │
│ (Conv2D)            │                   │            │                   │
├─────────────────────┼───────────────────┼────────────┼───────────────────┤
│ block5a_se_expand   │ (None, 1, 1, 480) │     10,080 │ block5a_se_reduc… │
│ (Conv2D)            │                   │            │                   │
├─────────────────────┼───────────────────┼────────────┼───────────────────┤
│ block5a_se_excite   │ (None, 4, 8, 480) │          0 │ block5a_activati… │
│ (Multiply)          │                   │            │ block5a_se_expan… │
├─────────────────────┼───────────────────┼────────────┼───────────────────┤
│ block5a_project_co… │ (None, 4, 8, 112) │     53,760 │ block5a_se_excit… │
│ (Conv2D)            │                   │            │                   │
├─────────────────────┼───────────────────┼────────────┼───────────────────┤
│ block5a_project_bn  │ (None, 4, 8, 112) │        448 │ block5a_project_… │
│ (BatchNormalizatio… │                   │            │                   │
├─────────────────────┼───────────────────┼────────────┼───────────────────┤
│ block5b_expand_conv │ (None, 4, 8, 672) │     75,264 │ block5a_project_… │
│ (Conv2D)            │                   │            │                   │
├─────────────────────┼───────────────────┼────────────┼───────────────────┤
│ block5b_expand_bn   │ (None, 4, 8, 672) │      2,688 │ block5b_expand_c… │
│ (BatchNormalizatio… │                   │            │                   │
├─────────────────────┼───────────────────┼────────────┼───────────────────┤
│ block5b_expand_act… │ (None, 4, 8, 672) │          0 │ block5b_expand_b… │
│ (Activation)        │                   │            │                   │
├─────────────────────┼───────────────────┼────────────┼───────────────────┤
│ block5b_dwconv      │ (None, 4, 8, 672) │     16,800 │ block5b_expand_a… │
│ (DepthwiseConv2D)   │                   │            │                   │
├─────────────────────┼───────────────────┼────────────┼───────────────────┤
│ block5b_bn          │ (None, 4, 8, 672) │      2,688 │ block5b_dwconv[0… │
│ (BatchNormalizatio… │                   │            │                   │
├─────────────────────┼───────────────────┼────────────┼───────────────────┤
│ block5b_activation  │ (None, 4, 8, 672) │          0 │ block5b_bn[0][0]  │
│ (Activation)        │                   │            │                   │
├─────────────────────┼───────────────────┼────────────┼───────────────────┤
│ block5b_se_squeeze  │ (None, 672)       │          0 │ block5b_activati… │
│ (GlobalAveragePool… │                   │            │                   │
├─────────────────────┼───────────────────┼────────────┼───────────────────┤
│ block5b_se_reshape  │ (None, 1, 1, 672) │          0 │ block5b_se_squee… │
│ (Reshape)           │                   │            │                   │
├─────────────────────┼───────────────────┼────────────┼───────────────────┤
│ block5b_se_reduce   │ (None, 1, 1, 28)  │     18,844 │ block5b_se_resha… │
│ (Conv2D)            │                   │            │                   │
├─────────────────────┼───────────────────┼────────────┼───────────────────┤
│ block5b_se_expand   │ (None, 1, 1, 672) │     19,488 │ block5b_se_reduc… │
│ (Conv2D)            │                   │            │                   │
├─────────────────────┼───────────────────┼────────────┼───────────────────┤
│ block5b_se_excite   │ (None, 4, 8, 672) │          0 │ block5b_activati… │
│ (Multiply)          │                   │            │ block5b_se_expan… │
├─────────────────────┼───────────────────┼────────────┼───────────────────┤
│ block5b_project_co… │ (None, 4, 8, 112) │     75,264 │ block5b_se_excit… │
│ (Conv2D)            │                   │            │                   │
├─────────────────────┼───────────────────┼────────────┼───────────────────┤
│ block5b_project_bn  │ (None, 4, 8, 112) │        448 │ block5b_project_… │
│ (BatchNormalizatio… │                   │            │                   │
├─────────────────────┼───────────────────┼────────────┼───────────────────┤
│ block5b_drop        │ (None, 4, 8, 112) │          0 │ block5b_project_… │
│ (Dropout)           │                   │            │                   │
├─────────────────────┼───────────────────┼────────────┼───────────────────┤
│ block5b_add (Add)   │ (None, 4, 8, 112) │          0 │ block5b_drop[0][… │
│                     │                   │            │ block5a_project_… │
├─────────────────────┼───────────────────┼────────────┼───────────────────┤
│ block5c_expand_conv │ (None, 4, 8, 672) │     75,264 │ block5b_add[0][0] │
│ (Conv2D)            │                   │            │                   │
├─────────────────────┼───────────────────┼────────────┼───────────────────┤
│ block5c_expand_bn   │ (None, 4, 8, 672) │      2,688 │ block5c_expand_c… │
│ (BatchNormalizatio… │                   │            │                   │
├─────────────────────┼───────────────────┼────────────┼───────────────────┤
│ block5c_expand_act… │ (None, 4, 8, 672) │          0 │ block5c_expand_b… │
│ (Activation)        │                   │            │                   │
├─────────────────────┼───────────────────┼────────────┼───────────────────┤
│ block5c_dwconv      │ (None, 4, 8, 672) │     16,800 │ block5c_expand_a… │
│ (DepthwiseConv2D)   │                   │            │                   │
├─────────────────────┼───────────────────┼────────────┼───────────────────┤
│ block5c_bn          │ (None, 4, 8, 672) │      2,688 │ block5c_dwconv[0… │
│ (BatchNormalizatio… │                   │            │                   │
├─────────────────────┼───────────────────┼────────────┼───────────────────┤
│ block5c_activation  │ (None, 4, 8, 672) │          0 │ block5c_bn[0][0]  │
│ (Activation)        │                   │            │                   │
├─────────────────────┼───────────────────┼────────────┼───────────────────┤
│ block5c_se_squeeze  │ (None, 672)       │          0 │ block5c_activati… │
│ (GlobalAveragePool… │                   │            │                   │
├─────────────────────┼───────────────────┼────────────┼───────────────────┤
│ block5c_se_reshape  │ (None, 1, 1, 672) │          0 │ block5c_se_squee… │
│ (Reshape)           │                   │            │                   │
├─────────────────────┼───────────────────┼────────────┼───────────────────┤
│ block5c_se_reduce   │ (None, 1, 1, 28)  │     18,844 │ block5c_se_resha… │
│ (Conv2D)            │                   │            │                   │
├─────────────────────┼───────────────────┼────────────┼───────────────────┤
│ block5c_se_expand   │ (None, 1, 1, 672) │     19,488 │ block5c_se_reduc… │
│ (Conv2D)            │                   │            │                   │
├─────────────────────┼───────────────────┼────────────┼───────────────────┤
│ block5c_se_excite   │ (None, 4, 8, 672) │          0 │ block5c_activati… │
│ (Multiply)          │                   │            │ block5c_se_expan… │
├─────────────────────┼───────────────────┼────────────┼───────────────────┤
│ block5c_project_co… │ (None, 4, 8, 112) │     75,264 │ block5c_se_excit… │
│ (Conv2D)            │                   │            │                   │
├─────────────────────┼───────────────────┼────────────┼───────────────────┤
│ block5c_project_bn  │ (None, 4, 8, 112) │        448 │ block5c_project_… │
│ (BatchNormalizatio… │                   │            │                   │
├─────────────────────┼───────────────────┼────────────┼───────────────────┤
│ block5c_drop        │ (None, 4, 8, 112) │          0 │ block5c_project_… │
│ (Dropout)           │                   │            │                   │
├─────────────────────┼───────────────────┼────────────┼───────────────────┤
│ block5c_add (Add)   │ (None, 4, 8, 112) │          0 │ block5c_drop[0][… │
│                     │                   │            │ block5b_add[0][0] │
├─────────────────────┼───────────────────┼────────────┼───────────────────┤
│ block6a_expand_conv │ (None, 4, 8, 672) │     75,264 │ block5c_add[0][0] │
│ (Conv2D)            │                   │            │                   │
├─────────────────────┼───────────────────┼────────────┼───────────────────┤
│ block6a_expand_bn   │ (None, 4, 8, 672) │      2,688 │ block6a_expand_c… │
│ (BatchNormalizatio… │                   │            │                   │
├─────────────────────┼───────────────────┼────────────┼───────────────────┤
│ block6a_expand_act… │ (None, 4, 8, 672) │          0 │ block6a_expand_b… │
│ (Activation)        │                   │            │                   │
├─────────────────────┼───────────────────┼────────────┼───────────────────┤
│ block6a_dwconv_pad  │ (None, 7, 11,     │          0 │ block6a_expand_a… │
│ (ZeroPadding2D)     │ 672)              │            │                   │
├─────────────────────┼───────────────────┼────────────┼───────────────────┤
│ block6a_dwconv      │ (None, 2, 4, 672) │     16,800 │ block6a_dwconv_p… │
│ (DepthwiseConv2D)   │                   │            │                   │
├─────────────────────┼───────────────────┼────────────┼───────────────────┤
│ block6a_bn          │ (None, 2, 4, 672) │      2,688 │ block6a_dwconv[0… │
│ (BatchNormalizatio… │                   │            │                   │
├─────────────────────┼───────────────────┼────────────┼───────────────────┤
│ block6a_activation  │ (None, 2, 4, 672) │          0 │ block6a_bn[0][0]  │
│ (Activation)        │                   │            │                   │
├─────────────────────┼───────────────────┼────────────┼───────────────────┤
│ block6a_se_squeeze  │ (None, 672)       │          0 │ block6a_activati… │
│ (GlobalAveragePool… │                   │            │                   │
├─────────────────────┼───────────────────┼────────────┼───────────────────┤
│ block6a_se_reshape  │ (None, 1, 1, 672) │          0 │ block6a_se_squee… │
│ (Reshape)           │                   │            │                   │
├─────────────────────┼───────────────────┼────────────┼───────────────────┤
│ block6a_se_reduce   │ (None, 1, 1, 28)  │     18,844 │ block6a_se_resha… │
│ (Conv2D)            │                   │            │                   │
├─────────────────────┼───────────────────┼────────────┼───────────────────┤
│ block6a_se_expand   │ (None, 1, 1, 672) │     19,488 │ block6a_se_reduc… │
│ (Conv2D)            │                   │            │                   │
├─────────────────────┼───────────────────┼────────────┼───────────────────┤
│ block6a_se_excite   │ (None, 2, 4, 672) │          0 │ block6a_activati… │
│ (Multiply)          │                   │            │ block6a_se_expan… │
├─────────────────────┼───────────────────┼────────────┼───────────────────┤
│ block6a_project_co… │ (None, 2, 4, 192) │    129,024 │ block6a_se_excit… │
│ (Conv2D)            │                   │            │                   │
├─────────────────────┼───────────────────┼────────────┼───────────────────┤
│ block6a_project_bn  │ (None, 2, 4, 192) │        768 │ block6a_project_… │
│ (BatchNormalizatio… │                   │            │                   │
├─────────────────────┼───────────────────┼────────────┼───────────────────┤
│ block6b_expand_conv │ (None, 2, 4,      │    221,184 │ block6a_project_… │
│ (Conv2D)            │ 1152)             │            │                   │
├─────────────────────┼───────────────────┼────────────┼───────────────────┤
…
│ (DepthwiseConv2D)   │ 1152)             │            │                   │
├─────────────────────┼───────────────────┼────────────┼───────────────────┤
│ block6b_bn          │ (None, 2, 4,      │      4,608 │ block6b_dwconv[0… │
│ (BatchNormalizatio… │ 1152)             │            │                   │
├─────────────────────┼───────────────────┼────────────┼───────────────────┤
│ block6b_activation  │ (None, 2, 4,      │          0 │ block6b_bn[0][0]  │
│ (Activation)        │ 1152)             │            │                   │
├─────────────────────┼───────────────────┼────────────┼───────────────────┤
│ block6b_se_squeeze  │ (None, 1152)      │          0 │ block6b_activati… │
│ (GlobalAveragePool… │                   │            │                   │
├─────────────────────┼───────────────────┼────────────┼───────────────────┤
│ block6b_se_reshape  │ (None, 1, 1,      │          0 │ block6b_se_squee… │
│ (Reshape)           │ 1152)             │            │                   │
├─────────────────────┼───────────────────┼────────────┼───────────────────┤
│ block6b_se_reduce   │ (None, 1, 1, 48)  │     55,344 │ block6b_se_resha… │
│ (Conv2D)            │                   │            │                   │
├─────────────────────┼───────────────────┼────────────┼───────────────────┤
│ block6b_se_expand   │ (None, 1, 1,      │     56,448 │ block6b_se_reduc… │
│ (Conv2D)            │ 1152)             │            │                   │
├─────────────────────┼───────────────────┼────────────┼───────────────────┤
│ block6b_se_excite   │ (None, 2, 4,      │          0 │ block6b_activati… │
│ (Multiply)          │ 1152)             │            │ block6b_se_expan… │
├─────────────────────┼───────────────────┼────────────┼───────────────────┤
│ block6b_project_co… │ (None, 2, 4, 192) │    221,184 │ block6b_se_excit… │
│ (Conv2D)            │                   │            │                   │
├─────────────────────┼───────────────────┼────────────┼───────────────────┤
│ block6b_project_bn  │ (None, 2, 4, 192) │        768 │ block6b_project_… │
│ (BatchNormalizatio… │                   │            │                   │
├─────────────────────┼───────────────────┼────────────┼───────────────────┤
│ block6b_drop        │ (None, 2, 4, 192) │          0 │ block6b_project_… │
│ (Dropout)           │                   │            │                   │
├─────────────────────┼───────────────────┼────────────┼───────────────────┤
│ block6b_add (Add)   │ (None, 2, 4, 192) │          0 │ block6b_drop[0][… │
│                     │                   │            │ block6a_project_… │
├─────────────────────┼───────────────────┼────────────┼───────────────────┤
│ block6c_expand_conv │ (None, 2, 4,      │    221,184 │ block6b_add[0][0] │
│ (Conv2D)            │ 1152)             │            │                   │
├─────────────────────┼───────────────────┼────────────┼───────────────────┤
…
│ (BatchNormalizatio… │ 1280)             │            │                   │
├─────────────────────┼───────────────────┼────────────┼───────────────────┤
│ top_activation      │ (None, 2, 4,      │          0 │ top_bn[0][0]      │
│ (Activation)        │ 1280)             │            │                   │
├─────────────────────┼───────────────────┼────────────┼───────────────────┤
│ bn_after_efficient… │ (None, 2, 4,      │      5,120 │ top_activation[0… │
│ (BatchNormalizatio… │ 1280)             │            │                   │
├─────────────────────┼───────────────────┼────────────┼───────────────────┤
│ reshape_for_transf… │ (None, 4, 2560)   │          0 │ bn_after_efficie… │
│ (Reshape)           │                   │            │                   │
├─────────────────────┼───────────────────┼────────────┼───────────────────┤
│ feature_projection  │ (None, 4, 128)    │    327,808 │ reshape_for_tran… │
│ (Dense)             │                   │            │                   │
├─────────────────────┼───────────────────┼────────────┼───────────────────┤
│ bn_projection       │ (None, 4, 128)    │        512 │ feature_projecti… │
│ (BatchNormalizatio… │                   │            │                   │
├─────────────────────┼───────────────────┼────────────┼───────────────────┤
│ token_and_position… │ (None, 4, 128)    │        512 │ bn_projection[0]… │
│ (TokenAndPositionE… │                   │            │                   │
├─────────────────────┼───────────────────┼────────────┼───────────────────┤
│ transformer_block   │ (None, 4, 128)    │    330,240 │ token_and_positi… │
│ (TransformerBlock)  │                   │            │                   │
├─────────────────────┼───────────────────┼────────────┼───────────────────┤
│ transformer_block_1 │ (None, 4, 128)    │    330,240 │ transformer_bloc… │
│ (TransformerBlock)  │                   │            │                   │
├─────────────────────┼───────────────────┼────────────┼───────────────────┤
│ global_avg_pooling  │ (None, 128)       │          0 │ transformer_bloc… │
│ (GlobalAveragePool… │                   │            │                   │
├─────────────────────┼───────────────────┼────────────┼───────────────────┤
│ bn_after_pooling    │ (None, 128)       │        512 │ global_avg_pooli… │
│ (BatchNormalizatio… │                   │            │                   │
├─────────────────────┼───────────────────┼────────────┼───────────────────┤
│ fc_1 (Dense)        │ (None, 512)       │     66,048 │ bn_after_pooling… │
├─────────────────────┼───────────────────┼────────────┼───────────────────┤
│ bn_fc1              │ (None, 512)       │      2,048 │ fc_1[0][0]        │
│ (BatchNormalizatio… │                   │            │                   │
├─────────────────────┼───────────────────┼────────────┼───────────────────┤
│ dropout_1 (Dropout) │ (None, 512)       │          0 │ bn_fc1[0][0]      │
├─────────────────────┼───────────────────┼────────────┼───────────────────┤
│ fc_2 (Dense)        │ (None, 256)       │    131,328 │ dropout_1[0][0]   │
├─────────────────────┼───────────────────┼────────────┼───────────────────┤
│ bn_fc2              │ (None, 256)       │      1,024 │ fc_2[0][0]        │
│ (BatchNormalizatio… │                   │            │                   │
├─────────────────────┼───────────────────┼────────────┼───────────────────┤
│ dropout_2 (Dropout) │ (None, 256)       │          0 │ bn_fc2[0][0]      │
├─────────────────────┼───────────────────┼────────────┼───────────────────┤
│ character_output    │ (None, 214)       │     54,998 │ dropout_2[0][0]   │
│ (Dense)             │                   │            │                   │
└─────────────────────┴───────────────────┴────────────┴───────────────────┘
 Total params: 5,299,961 (20.22 MB)
 Trainable params: 2,741,942 (10.46 MB)
 Non-trainable params: 2,558,019 (9.76 MB)

